Assets/TFModels/CrossRoad.onnx (onnx, 74175 bytes, 7 tensors)

action_model._continuous_distribution.log_sigma f4 [1, 2]
00000000: f4d7 9f3d 5dbb d3bd
0.07804862 -0.10338471

action_model._continuous_distribution.mu.bias f4 [2]
00000000: 7b06 52bc 1201 c2b7
-0.012818928 -2.31271e-05

action_model._continuous_distribution.mu.weight f4 [2, 128]
00000000: 5918 9cbd 86ba 8a3d a2f6 7fbc 578c ed3c
00000010: e83c 98bc 78d0 34bd 54ac 893d a523 b6bc
00000020: 114b 4f3c 4cb5 993d 6832 34bc b93b 18bd
00000030: 7833 c1bc 3908 823c e320 1fbd f01f 0bbc
00000040: 83af 3f3b 7b3d d13c e60d 5c3c 7af7 bcbb
00000050: 48a1 b53b 0380 363d 9aff 4239 d1d7 04bd
00000060: bcb4 4ebd 05fe 78bd 5586 16bd ab3b b5bc
00000070: 604d 4abd 12e4 a2bd 8aec ba3d 4d70 d63b
00000080: e1d1 953c 34ba e03c 31b3 d33d c222 19bd
00000090: 3e67 903d d223 9d3d 9097 dd3c 371b 71bd
000000a0: f7fc 48bd 9f53 d63c 4e8f 4d3d 3db3 babc
000000b0: 3d9c 323c bb3f 0cbb 6dea 3cbc af8c 18bd
000000c0: e202 823c 86bc 783c 7748 143b 1987 323d
000000d0: cf8c 823d b1bc d0bb 30d2 72bc 1fd8 fc3b
000000e0: e64e 54bd 5121 e8bb 911c ad3c ac3b 303d
000000f0: e375 84bb c877 40bc a1c9 e53b 9380 3c3d
00000100: 8009 72bd c359 813d 7f94 4a3d 73b5 e63c
00000110: 9879 a0bb a97e ef3c 57ae 7c3d b351 43bc
00000120: 27e9 9bbc 4a4d 6abd 9ce6 f0bc b883 a33c
00000130: 4c48 96bd 6677 1fbd eeb0 693c efa3 943c
00000140: c35f 843d 329b 643d 0d08 89bc 9514 aebc
00000150: 2b85 963d d325 45bd 54bd f9bc 850f 5abd
00000160: fee0 a4bb e6f7 363d 6091 603d 33a4 9fbd
00000170: f2a0 513d 3ba5 4dbd 3aa7 9d3c 54c0 e73c
00000180: e5e1 8a3d 003f cfbc e7e6 383d 39ea d43b
00000190: 5d38 073d 1a0f 2cbd 9053 3abd 45e7 e0bc
000001a0: c97e 303d f0ce 5a3a 0e9a c93c 4278 10bc
000001b0: 2c61 27bb 1879 84bd 54cd f93b 85ad 723d
000001c0: e481 96bc 46bd f6bc 0fcd c23c 95bb f23c
000001d0: 6cd0 e0ba 9532 94bc 7de2 97bc 3101 e63c
000001e0: 2300 a03d a193 1dbd 78f0 89bd 4661 63bc
000001f0: 9ab0 7fbd 808e dbbc 668a b9bc ccf6 993b
00000200: 8675 46bd 585f 25bd 054e bf3c 45d5 a7bd
00000210: 1e32 903d abcb ac3d f03f 5d3d 38b7 533d
00000220: 8e23 d3bc 5683 02bd 2992 eb3c 6561 4a3d
00000230: 4d3e e13b 0344 573d e1f1 23bd 070d d6bb
00000240: 7681 963c 86e3 673d 663f 8dbc b628 88bc
00000250: 1dab 94bd d7b2 69bd 9ff0 5b3d 39eb 9fbc
00000260: 72cf 51bd a7d1 293c 65bd 8dbd 0213 793d
00000270: d767 94bc b31d 1cbc 505d 18bc 2764 5fbd
00000280: e393 663d 1bec 03bd 1c2a 8d3c 76bf 883c
00000290: c074 ba3c f0ee a6bc 54c4 3e3d a001 e9bb
000002a0: f500 abbc 744b 2f3d 0bb0 fbbc 502a b33c
000002b0: 0d25 2b3d 0060 8bbd 56a7 1abc 37fb 39bd
000002c0: a153 fabc fcf0 03bc 7aa4 88bd 5917 62bd
000002d0: 7d5a 5a3d cebb 1a3d 8ca6 983b 9b97 a83d
000002e0: 248d ccbc 105e 02bd 4c34 ea3c 8dcd 49bd
000002f0: d69d 2b3c 7dd2 63bd 4417 1c3d 890c 54bc
00000300: 71a0 243d 0cd4 103d 8a8c 7f3d 7109 593d
00000310: 807c 733d e1ad 1ebd a0f5 3e3c 5a09 413d
00000320: 7f5a 8f3d c36c 3f3b f7da 3a3d 68fa 8dbd
00000330: f8aa 57bd 69e0 c43c a0af 4c3d cd42 8b3d
00000340: fdb5 5cbc 3cbc 14bc d052 74bd 161e 183d
00000350: 19d3 4ebc 5462 3b3c cb86 68bd 6a0d a8bc
00000360: b13e 663d fce0 123b 5b84 babd 758d 62bc
00000370: 3513 d6bc 052c df3c a55f 73bd 3dcf 8cbd
00000380: ab09 3abb 8dd3 983c 4a95 12bd db4b 24bc
00000390: b085 93bd 9172 5d3d c3b0 873c ffd0 4b3d
000003a0: 680d c63c 5ac3 53bd 6687 68bb c933 ef3c
000003b0: 9e83 873d a47e 4cbc 5189 0bbd 2167 743d
000003c0: 92c1 a6bd e50e df3b e3c5 9abd 1d53 fabc
000003d0: 529c 83bd 45e3 89bd ccee 8dbd 956f 82bd
000003e0: cc40 d5bc 4e47 83bd b180 b2bc 4310 a33c
000003f0: eede 1abd 6374 2a3b 3124 533d 9264 75bd
-0.076218314 0.06773858 -0.015622767 0.028997583 -0.01858373 -0.044144124 0.06722322 -0.022233794
0.012652175 0.07505283 -0.010998346 -0.03716633 -0.023584113 0.015873061 -0.038849723 -0.008491501
0.00292489 0.025542011 0.013431048 -0.005766806 0.005542908 0.044555675 0.00018596501 -0.03243238
-0.05046533 -0.060789127 -0.036749203 -0.022123178 -0.049390197 -0.07953657 0.091271475 0.006544149
0.018288555 0.027432539 0.103369124 -0.037386663 0.07050942 0.07672848 0.02704981 -0.058863845
-0.04906937 0.02616292 0.050185494 -0.022790546 0.010901508 -0.002140029 -0.011530501 -0.03724354
0.015870515 0.015181666 0.00226262 0.04358587 0.06374513 -0.00637015 -0.01482062 0.0077161933
-0.051833056 -0.0070840498 0.021131786 0.043025658 -0.0040423735 -0.011747308 0.0070125614 0.046021055
-0.05909109 0.06315949 0.049458023 0.028162694 -0.0048973076 0.029235201 0.0616897 -0.011921334
-0.019032074 -0.057202615 -0.029406838 0.01996027 -0.07338008 -0.038932227 0.014263375 0.018144576
0.064635776 0.05581207 -0.016727472 -0.021250049 0.073496185 -0.048131775 -0.030485786 -0.053237457
-0.005031704 0.044670008 0.05482614 -0.077949904 0.05117888 -0.050206404 0.019244779 0.028289951
0.06781367 -0.025298595 0.04514208 0.006497648 0.033012737 -0.04200659 -0.045489848 -0.027454028
0.04308966 0.0008346876 0.024609592 -0.008817734 -0.0025540097 -0.06468409 0.007623354 0.059247512
-0.018372484 -0.03011955 0.02377942 0.029630462 -0.0017151958 -0.018090526 -0.018540615 0.02807674
0.07812526 -0.038470868 -0.06735319 -0.013878172 -0.06242428 -0.026801348 -0.022649001 0.00469861
-0.048451923 -0.04037413 0.023352632 -0.08194975 0.07040809 0.08437284 0.054016054 0.051688403
-0.02577379 -0.031863533 0.028756218 0.04940929 0.006873882 0.052555095 -0.040025596 -0.0065323147
0.018372279 0.056613468 -0.017242145 -0.016620975 -0.072592 -0.05705532 0.05369627 -0.019521343
-0.051223226 0.010364926 -0.0692089 0.060809143 -0.018115921 -0.009528565 -0.009299591 -0.054538872
0.05629338 -0.03220759 0.017231993 0.016692858 0.022760749 -0.020377606 0.04657395 -0.0071107894
-0.02087448 0.042796567 -0.030723592 0.021870762 0.04178338 -0.0680542 -0.00943931 -0.045405593
-0.030557455 -0.008053061 -0.066719964 -0.055198047 0.053308953 0.03777676 0.004658526 0.082320414
-0.024969645 -0.031827986 0.02858939 -0.049268294 0.010474643 -0.05562066 0.038108125 -0.012942442
0.04019207 0.035358474 0.062389888 0.05298752 0.059444904 -0.038740043 0.011655241 0.04712806
0.06999683 0.0029209114 0.045618977 -0.06932527 -0.052653283 0.024032788 0.049972177 0.067998506
-0.013471124 -0.009078082 -0.05964929 0.037138067 -0.012623572 0.0114370175 -0.056769174 -0.020514209
0.05621213 0.0022411933 -0.09107276 -0.013827671 -0.026132206 0.02724267 -0.059417386 -0.06875465
-0.002838711 0.018655563 -0.035786904 -0.010027851 -0.07203233 0.054064337 0.016563779 0.04975986
0.024176314 -0.051699974 -0.0035481094 0.029199498 0.06616901 -0.012481365 -0.034066502 0.059668664
-0.08142389 0.0068071955 -0.07557275 -0.03055721 -0.064263 -0.06732801 -0.069303125 -0.06368939
-0.026031874 -0.06410085 -0.02178988 0.019905215 -0.03781026 0.0026009313 0.051548187 -0.059910364

network_body._body_endoder.seq_layers.0.bias f4 [128]
00000000: 9680 2b3a 4835 c53c 43fb e93c e7ee 2b3c
00000010: 50a2 823c 6177 e4bc 23a4 bb3c cab3 c0bb
00000020: 8486 903b fc72 183d a071 853c 03b7 003d
00000030: 0fa6 11bd 562d 073d 5fcb 95ba 6224 db3c
00000040: b899 073d 2bce 213d 64f8 7d3c 2ff6 8c3c
00000050: 2299 c0bc 7bcc 853c 8499 213d 48dc 30bc
00000060: 12b3 f03b 4224 dd3b bab4 843b b7ad a53b
00000070: b172 ef3c 5289 6d3c aab7 b6ba ad77 6a3c
00000080: 97cc 613c e58e b53c f500 d63c e231 363c
00000090: 54bd 32b9 f1aa 323d d044 9c3c 939d 853b
000000a0: 64fa b8bc 550a 4b3a 0b58 143d a20d 733c
000000b0: 4c8a 063d ec1d b1b8 7d78 1a3d 9690 bfbc
000000c0: b15c ac3b 5b43 ddbb ea28 573c 53f0 5e3b
000000d0: 6df1 29bc 1c65 5b3d 00b3 63bb 97a1 783c
000000e0: 2ea4 86bb 2aa0 c73c e254 c93c b89c cebb
000000f0: 13a9 143d 13bb 113c f87b 353c a5d5 993c
00000100: 444c fcbb d8ab d53b e433 28bc daee f83c
00000110: e185 ce3a aa14 093d f350 153d 2f73 d83b
00000120: fad4 a3ba a9ec fbbb a4fe 9d3c 3133 063d
00000130: 318b 073d 3755 61bc 9596 d1bb 315e 0f3d
00000140: fe0d 9dbc 9394 3bbc eb33 173c a6c6 563b
00000150: 7821 6e3c 46aa 243c a00e 553c 618b e8bc
00000160: b595 d9bb 6ce8 293c 0e3b a9bc 1a66 b83c
00000170: 51d7 5f3c 9273 1fbc af4f c039 d5a0 d83c
00000180: 5ea0 f23c 09f7 f03c ed02 023d de75 243d
00000190: af0e 073c 2d23 4e3d 4a4c 853b 7e83 023d
000001a0: c212 8c3c 057f d63c 1b62 d3bb 7252 7a3c
000001b0: 6745 b03c 000b 093d 4e02 053d 555c bebc
000001c0: 380e f23c 99c3 92bc 0a3d 133b 0b88 1f3c
000001d0: 02cd 0e3d d92e b93c e24c 853c d57c 1e3d
000001e0: 2831 d23c 464f 873c d436 853d 904a 913c
000001f0: 8b98 423d 6947 e03c a034 063d c899 493c
0.0006542293 0.024073258 0.028562194 0.0104939705 0.015946537 -0.027888956 0.022905415 -0.0058808075
0.0044105668 0.037219033 0.016289532 0.031424534 -0.035558756 0.03300222 -0.0011428407 0.026750747
0.033105582 0.039503258 0.0155011155 0.017207233 -0.02351052 0.016332855 0.039453045 -0.010794707
0.0073455656 0.006748707 0.0040498646 0.005056109 0.029229494 0.014498072 -0.0013940234 0.0143107595
0.013781688 0.022162864 0.026123503 0.011120291 -0.00017045933 0.043620054 0.019075781 0.004077622
-0.022580333 0.0007745375 0.036216777 0.014834793 0.032846734 -8.445591e-05 0.037712563 -0.023384374
0.005260073 -0.006752414 0.013132313 0.0034017756 -0.010372502 0.053563222 -0.0034744143 0.015175245
-0.004108927 0.024368364 0.024576608 -0.0063053034 0.036294054 0.0088947 0.01107692 0.018778631
-0.0076995213 0.0065207295 -0.010266278 0.03038733 0.0015756452 0.033466972 0.036454152 0.006605528
-0.0012499385 -0.007688124 0.019286461 0.032763664 0.033091728 -0.013753227 -0.0063961246 0.035001937
-0.019171711 -0.011448997 0.009228687 0.0032772212 0.014534347 0.010050362 0.013003975 -0.028386774
-0.006640161 0.010370355 -0.020658042 0.022509623 0.013662175 -0.009732144 0.00036680463 0.026443878
0.029617485 0.02941467 0.03174107 0.04015147 0.008243247 0.050326515 0.0040679323 0.031863682
0.017098788 0.026183615 -0.006450904 0.015278446 0.021517469 0.033457756 0.0324729 -0.023237387
0.029547796 -0.017915534 0.0022466802 0.009737025 0.03486348 0.022605347 0.016272012 0.038693268
0.025658205 0.016517293 0.06504598 0.01773575 0.047508758 0.027377801 0.03276503 0.012304731

network_body._body_endoder.seq_layers.0.weight f4 [128, 9]
00000000: 8980 15bf e9f2 0e3f 1802 60be 62e9 a1bb
00000010: 78e9 a0bd 05b5 6d3b cf8d c6be 6b9d 35bd
00000020: 2f9e 59be 51cb 633e 40d6 ab3d 0da2 d73d
00000030: 755d 203d 2be5 483e fca6 30bf e3fc 04be
00000040: 2655 1d3e 43b5 11bc 3e3b 8b3e b92d 1e3e
00000050: 8438 033f 6aaf b5be a6d8 113c 12a6 1abe
00000060: ebde 063e 427e 5b3c 5e4c 543f 742a e3be
00000070: 4c40 48bf 5ec2 c43d 0369 b1bd 88d4 cebe
00000080: 0e24 e0bd ed1a 45bf 86f4 1d3e 1a3d e63e
00000090: 3525 2abe e810 7ebe 5902 14bd b94b 6b3e
000000a0: a81f f53e b994 c63d ffc8 b53e 40c6 b0bd
000000b0: 612c 403e 24f6 263f c79f acbe df50 a1be
000000c0: 4208 42be 769a d83e 119a c63e 00a7 a53d
000000d0: db61 d0bb aefa 7ebe ef6e 503c b2bf 983d
000000e0: ffaf 373e 8dd5 74be bee0 ba3d 7437 18bf
000000f0: a2bf b0be b69a 91be dcfd 82be 2c4a a83c
00000100: e30c 5fbf a37f 16bd ede9 ea3e ce85 59be
00000110: 1994 a4ba d7bc ab3d bc53 08bf b796 f73e
00000120: 5dc9 833d afcb 523e e87e b93e eb7b 293e
00000130: 1851 dcbe b5f7 3d3e 9244 babc 3480 9f3d
00000140: bbc5 3ebe 9542 e83e ec78 093d 5b20 213d
00000150: d357 cfbe 2ff3 10bf 81f1 59bf eade 2bbe
00000160: 3271 043f 6274 2bbe 31ad ad3e 03c0 383c
00000170: 4fa7 b43e 2ab8 e63e 6e58 c63e 28cb b5bd
00000180: c9ae 2cbf 0b2b 4e3e ded9 143f 82fc 323e
00000190: 4d8b 22bf 59c3 19bf 9c73 23bf c7bf fcbe
000001a0: 721e b0bd cf66 403d cc8e a2bc 9bb1 9f3e
000001b0: 3bcd 433e e389 16bf 8cb1 7e3e fa22 bebc
000001c0: 9625 1c3d 8de6 b0bc 8457 e13e 2be6 c2bd
000001d0: 9eb2 34be 8168 8cbd 8c2e 3a3e f8ff 7abe
000001e0: 7045 be3e eb9f c23e c250 94be 23ae c1bc
000001f0: e820 a5be dfd5 333f 2206 0dbf 3bba 3a3f
00000200: 5fca 9fbd 6dbc a2bd d647 c1be a124 ff3e
00000210: b279 5e3e fe8f 7abe 060e 50bd 1793 6dbe
00000220: 4c70 803e c191 5e3f e57e c33d 5765 e7be
00000230: 1f06 8d3e 3cf9 7dbe fb58 473e 2f24 6ebd
00000240: 90d6 5b3d 6035 ee3e a9b0 11bf 553b 543d
00000250: aef7 033f 70d4 6cbd e403 21be 3c3d f03e
00000260: d763 973e db58 19bd 7c09 853e ba72 0a3f
00000270: a4c5 ce3b fe17 aa3d 7258 34be d572 9c3e
00000280: 97d5 f53e 4607 0c3e fbec 06bf e29d 87be
00000290: c497 fc3d c0fb 6dbd e8f9 6abd 0b78 4fbf
000002a0: 4b16 e0be 4c60 10bf 75e1 c23e cf20 82be
000002b0: 56fc 173d 45aa d6bd 1657 efbd 71aa 22bf
000002c0: 5930 91be db41 903d 1c5e 80be 5f4d fbbd
000002d0: 6a86 b0be af04 a3be 9a7e f4be a278 23bd
000002e0: dbf6 173f 68b7 a73e 44c3 0abf d79f a93e
000002f0: d309 af3e 6d54 6bbd 3882 cd3e 16e0 283e
00000300: 8bcf 61be 4bbd 67be 39bf 8f3b dc0f 5d3e
00000310: 179e ff3e b4fb 63be aa6f d43e d808 b1bd
00000320: dda9 84bf c345 943d 97e0 483c 4565 8fbe
00000330: b0aa b2bc a76b 713e 273d 043f 3ca7 e53c
00000340: 6b1b 073e 400e 83be 3413 e5be 42a8 833e
00000350: 616e 93bd b759 9e3e 2a8f 1ebe 8a8e f23e
00000360: b44b bd3e efab d0be 4b1b 0ebf 5c82 76bd
00000370: d366 9cbd 92f8 b03e 0fb9 3d3f 0ba7 b03e
00000380: 5fe4 533d c472 06be f4b3 f6bd e104 153e
00000390: adff 383d b4a0 fb3d 85fd 52be 907f 953e
000003a0: 9825 a2bd c69f fabd 7d20 5ebe 048d 0ebf
000003b0: accb cd3e 6a99 3a3d 46df 05bf e2eb e13e
000003c0: 72a5 68be 5c2a 2cbc 41ae 783e 3199 2bbd
000003d0: 576e 4cbd 28d4 9e3e 105a 2abb 1a37 ef3d
000003e0: 3430 c6be 2e2b 39bf ff24 b0be eec0 22be
000003f0: 6a08 ba3e 28a7 c6bb 06ae c73e 8044 a6ba
-0.58399254 0.558394 -0.21875799 -0.0049411515 -0.07857031 0.0036271226 -0.38780066 -0.04433958
-0.21251749 0.22245528 0.08390474 0.105289556 0.039151628 0.1961867 -0.690048 -0.12987094
0.15364513 -0.008893314 0.27193636 0.1544713 0.5125811 -0.35485393 0.008901751 -0.15102413
0.13170974 0.013396801 0.8292903 -0.44368327 -0.7822311 0.09607385 -0.086626075 -0.40396523
-0.10944377 -0.7699421 0.1542531 0.44968492 -0.16615756 -0.24811137 -0.03613505 0.22978105
0.47875714 0.09696335 0.3550491 -0.08631563 0.18766929 0.6521933 -0.3371565 -0.31507012
-0.18948463 0.42305344 0.38789418 0.08088493 -0.0063593215 -0.24900314 0.012721761 0.07458438
0.17938231 -0.23909588 0.091248974 -0.59459615 -0.34521204 -0.28438348 -0.25584304 0.02054318
-0.8712904 -0.036742818 0.45881596 -0.21242449 -0.0012556344 0.08385628 -0.5325277 0.48357174
0.064348914 0.20585512 0.36229634 0.16551177 -0.4303062 0.18551524 -0.022737775 0.07788125
-0.18630116 0.45363298 0.033562586 0.039337497 -0.40496692 -0.5662107 -0.8513413 -0.16784254
0.5173522 -0.16743615 0.33921197 0.011276248 0.35283896 0.4506238 0.38739341 -0.088766396
-0.674542 0.20133607 0.5814494 0.17479137 -0.63493806 -0.600637 -0.6384828 -0.49365065
-0.08599557 0.046973046 -0.019843481 0.3119019 0.19121258 -0.5880415 0.24872416 -0.023210037
0.038121782 -0.02159431 0.44012082 -0.09516557 -0.17646262 -0.0685587 0.18181819 -0.24511707
0.37162352 0.38012633 -0.28967863 -0.023642605 -0.32251668 0.70248216 -0.5508748 0.72940415
-0.07802271 -0.079460956 -0.3775012 0.49832633 0.2172611 -0.24468991 -0.050794624 -0.23200642
0.25085676 0.8694115 0.095456876 -0.45194504 0.27543733 -0.24802107 0.19467537 -0.058139976
0.05367142 0.46525097 -0.56910187 0.051814396 0.51549804 -0.057819784 -0.1572414 0.46921718
0.2956836 -0.037438255 0.25983799 0.5408131 0.0063101817 0.083053574 -0.17611864 0.3055636
0.4801452 0.1367465 -0.52705353 -0.26487643 0.123336345 -0.058101416 -0.057367235 -0.81042546
-0.43767008 -0.5639694 0.38062635 -0.25415656 0.03710588 -0.10481695 -0.11686532 -0.6354132
-0.283572 0.07043811 -0.250718 -0.12270617 -0.3447755 -0.3183951 -0.4775284 -0.039909966
0.59361047 0.32757115 -0.542042 0.3312976 0.34187183 -0.05745356 0.40138412 0.16491732
-0.22051828 -0.22630803 0.004386809 0.21588081 0.499253 -0.22263986 0.41491443 -0.08644265
-1.0364338 0.072398685 0.012260578 -0.2800695 -0.021809906 0.23576222 0.5165581 0.028033845
0.13194053 -0.2559681 -0.44741213 0.25714308 -0.071987875 0.30927822 -0.154843 0.47374374
0.3697182 -0.40756175 -0.55510396 -0.060182914 -0.076368 0.34564644 0.741105 0.34502444
0.051731464 -0.13129717 -0.12046042 0.14552642 0.045165706 0.12286511 -0.20604523 0.29198885
-0.07917327 -0.122375056 -0.21692081 -0.5568392 0.40194452 0.045556463 -0.52293813 0.44125277
-0.22719362 -0.010508146 0.24285223 -0.04189414 -0.049909916 0.31021237 -0.0025993623 0.11680432
-0.3870865 -0.7233151 -0.34403226 -0.1589391 0.36334544 -0.006062407 0.38999957 -0.001268521

network_body._body_endoder.seq_layers.2.bias f4 [128]
00000000: 4f93 433c 1858 ebbb a2f3 483c 4070 833c
00000010: 9666 9d3c 1e98 7e3c 285b 4bbb 560d fe3c
00000020: 14ce 6ebc 896e 86bb 3322 533c 2aa3 913c
00000030: 64f8 233c 34be 4d3c 50ad a93c 02e1 44bb
00000040: 616f 273b a16e 633c 24e0 79bc cfc7 823c
00000050: 1b0d 783c ce82 7c3b 2776 ce3c 025c 703c
00000060: b080 b83c b8f6 e93c a2c3 fc3c 4cb7 d23c
00000070: 89bc e13c 0808 da3c 8af8 08bc 4523 d43c
00000080: 8d32 dc3c 92ff 13bb 075c 08bc 19a4 193d
00000090: 4c1b 9cbb 3c1a d2bb 4f74 8438 fcb5 d83c
000000a0: d860 9f3c 580d c53c a37e 56ba d47c 723c
000000b0: 4d29 19bc b0ec 233d 97a6 e73b 2fd2 f63c
000000c0: 127f 15bc 937f 7fbc b33f ee3c a403 ac3c
000000d0: 2272 ca3b 582a da39 7c48 d1bb 919b ae3c
000000e0: e511 a33c 3eea 7aba 9c72 f23b 2ae8 8b3c
000000f0: d4bb 6d3a f29c 573c 8205 c73b e96d 093d
00000100: ece2 093d a2d8 7e3b 24f4 183c f7f0 583c
00000110: 1651 383d 16b9 503b b1b2 52bc a73e b23b
00000120: 185e 063d e4ac b53c 0c6a d33c ac11 5a3c
00000130: 68a4 023d d007 a43c b4f8 713a 90b0 c03c
00000140: e15a e33c 4c0d ddbb c72a 873c 49f9 823c
00000150: a070 23bc 5d67 873c a25e 0e3d 956c 613c
00000160: 5426 d03c 0ce1 33bc 29e2 b63c c6b2 f53c
00000170: 7798 23bb 4420 bd3c 6f02 bd3c 450d 663c
00000180: 3c5f d93b c05e 753c 42ae 5a3c f1c3 21bc
00000190: 20fa 1e3c b070 f93c fd52 cc3c 6bf2 a03c
000001a0: 3cfb 55bb 9ba5 153d 9c7c 84bc 2db3 2c3a
000001b0: 9f25 213d aeb8 8e3c 6e45 96bb b543 273a
000001c0: a0f1 fb3c 77ef a13c 9f81 c63c 3cab 79bb
000001d0: 7cae a43c 810b bf3c 4597 f03c 96dc a63c
000001e0: c6fa 553c 307d a53c bfeb b23c 17cf 423b
000001f0: 996f 053d 4362 4b3c 86a5 b73c 8dff 633a
0.011936977 -0.0071821325 0.012265118 0.016044736 0.019213956 0.015539197 -0.0031029675 0.031012218
-0.0145755 -0.0041025323 0.012886572 0.017777998 0.010007951 0.012557555 0.020712525 -0.0030041342
0.0025548565 0.013881356 -0.015251193 0.015964417 0.015139843 0.0038530114 0.025202824 0.014670374
0.0225223 0.028560027 0.030855004 0.025722168 0.02755572 0.026615158 -0.008360038 0.025895724
0.026879573 -0.0022582752 -0.008322722 0.03751001 -0.004763996 -0.006411819 6.315915e-05 0.026453964
0.019455358 0.024054214 -0.00081823225 0.014800269 -0.009348226 0.040020645 0.0070694196 0.03012952
-0.009124534 -0.015594381 0.029083109 0.02099783 0.0061781565 0.0004161175 -0.0063868146 0.021314414
0.019905994 -0.0009571648 0.0073989164 0.017078478 0.0009068821 0.013159977 0.0060736546 0.033552084
0.033663675 0.0038886447 0.009335551 0.013241044 0.044999205 0.00318486 -0.012859986 0.0054395976
0.03280458 0.022177167 0.025807403 0.013309877 0.03189507 0.020023257 0.000923048 0.023521692
0.027753295 -0.00674597 0.01649989 0.015988009 -0.009975582 0.01652878 0.034758218 0.013758798
0.025408901 -0.010978948 0.022324638 0.029992472 -0.0024962702 0.023086675 0.02307245 0.01404125
0.0066336673 0.014976203 0.01334721 -0.009873376 0.009703189 0.030449241 0.024941916 0.019646844
-0.0032650968 0.036534887 -0.0161727 0.00065879786 0.03934252 0.017422047 -0.0045859134 0.00063806336
0.030754864 0.019767506 0.02423173 -0.0038096448 0.020102732 0.023320915 0.029369006 0.020368855
0.013060277 0.020201296 0.021840928 0.0029725486 0.03257713 0.012413564 0.022417795 0.0008697443

network_body._body_endoder.seq_layers.2.weight f4 [128, 128]
00000000: 4f40 f1bd 7a09 263e 15be 683e bc83 4f3e
00000010: 87bf 1d3e f705 3ebd fbe7 7abd 40dc 433b
00000020: c465 26be f4f5 2e3d dd6e 3abd a816 84bd
00000030: f2d4 3abd 1671 9e3c b647 963d fc18 6ebd
00000040: e9d0 20bd f20f 103d 966c 2e3d b177 e8bd
00000050: 1b13 013e efad ff3d 530a 9dbc be83 5f3d
00000060: c53f f93d 7b06 da3d b51e 42bd 7aa0 813d
00000070: 8b57 ea3c e2bb d9bc 5561 b13c 45fe 003a
00000080: 43b2 d13d c5a4 c33d 2ba8 5d3d 5121 1dbd
00000090: a5f5 123c 8098 82bd f445 9638 f7cc ad3c
000000a0: 1351 753d 22df 48bd f49d f0bd db5e 02be
000000b0: 4800 bf3d 6b5a b33d b08e ab3c 22d6 7dbd
000000c0: 66ee 04be 884e 37be e3c8 7c3d c456 5fbd
000000d0: 70b5 873d cfb6 1a3e d832 183c 2b85 64bd
000000e0: c1f1 b1bb fa19 0fbb 8942 843c 5cd0 2cbd
000000f0: e32b 9bbd f18f 9cbd 80c8 663d a801 00bd
00000100: 3fcb fbbd 88c3 d83d 9663 81bc df94 423e
00000110: 9a58 a8bc 5c71 1dbd ee8e 7fbd add0 95bc
00000120: 8e1d c13d 3b41 1dbe 6f0e c3bd 717f 283d
00000130: bfd4 933d 70f1 a7bd 2be7 55be fe61 7d3d
00000140: c9b0 febd 1a89 97bd 253c a5bd 37fd 3c3c
00000150: 61f2 b8bc da40 ed3d 181f 353e 92ed 83bd
00000160: ff90 ce3d ce1f 953d 4998 163d 35af 333c
00000170: cbc4 8d3d d0f9 dd3c 4d03 e7bd a9a6 e73d
00000180: e1a0 123e 785d 1c3e 99db c2bd f4c7 85bd
00000190: 56cb 45bd 7f05 99bd 095e aa3d b98f 2abd
000001a0: 7e83 963d 07ba 8cbc 8877 44bd b43a 0e3e
000001b0: 0e8e ecb9 60dc 823d 4a4a 9abd a286 21bd
000001c0: b9b5 4f3b a035 193c b3c0 8dbe 75ac 6fbe
000001d0: 1e6f e23d e09d 84bd e449 e63d 6e31 cbbd
000001e0: 1243 193e 758c f3bd e418 e8bb 0afc 683d
000001f0: 17ca 983d 26fe 4f3e 9298 c43c bcf8 363d
00000200: a52d 8f3b 5189 bf3d bdc0 ccbd 342e 3ebd
00000210: 5eff ef3d 4918 33bd f78a aa3c 73f3 9dbc
00000220: 3fa7 ae3d 007d 6bbd e3c5 3c3c 3113 8f3d
00000230: 839d cc3a a0c7 b0bd 3b99 f73d 4037 a23d
00000240: 52ce 3ebe 20c7 8e3d 5f83 313e 874e e33d
00000250: 4b04 32bd d7df 943d 575c d83c c9c2 2d3d
00000260: 4b53 723b 2ce4 d7bc 8066 b73d ddd8 393d
00000270: 0833 2dbc 9506 043e a805 58bd 6562 143e
00000280: e818 933d 548c 62bd 986f c8bc ae01 b03d
00000290: b52a febd b31b 4bbd a60c 00be b26e 2d3d
000002a0: ab83 693d e957 63bc 83bb 04bd 0f35 053d
000002b0: 26cd 3a3c f8ee 033c 3ee8 dabd deca 183d
000002c0: 1f1a 533c 4307 f13a c66d cc3d f408 713d
000002d0: c2a7 923c feb5 123e dfa7 843d d9c8 573e
000002e0: 9038 1dbd 034a 073d e041 bebc 1a13 203d
000002f0: 189e f53d 3825 533c 497f 15bd 5444 3dbc
00000300: 87c1 45bd 75e9 00bd e49e e93d 0740 efbc
00000310: 8384 a53c 496d 0b3e 3558 ab3d bbf9 3c3d
00000320: 1d44 c7bd 174a 4f3e 07c8 ed3d 61ba 83bc
00000330: 7166 16bd 7bb7 14bc a2aa 033e 4c0b 093d
00000340: f393 cbba 80c6 313e 530e 2c3c 2206 76bc
00000350: 99b0 04be eece c03d 2eca 50bb 8287 183e
00000360: edf9 d6bc 11f7 083d 45d8 8a3c aead eebd
00000370: a5c6 963c b86f fe3c caf8 a63d 6522 b0bd
00000380: 74ab a63d 3517 603d 69f1 3fbb 81a9 ebbd
00000390: 65c0 723d 2bd0 323d 3b65 94bd 4293 fcbc
000003a0: 3d43 09bc d857 aebc c7bc 4c3c c1a1 263c
000003b0: 46e5 7a3d 67ab 8c3d 6177 e63c c49f d8bd
000003c0: ec0a 13bb b751 d93d 4dc6 793c 721f a03d
000003d0: cf6d 0b3e 357b 2d3c 49d9 30bd 1c13 56be
000003e0: 1f0f 063c bf4b d8bc dd27 743d c571 6fbc
000003f0: c017 63bd de98 05be c50c 203e 2c22 a23d
-0.11779844 0.16214553 0.2272876 0.20265096 0.15405093 -0.046392407 -0.06125639 0.0029885918
-0.16249758 0.042715028 -0.045515884 -0.06449634 -0.045613237 0.019341033 0.073378965 -0.058129296
-0.039261732 0.035171457 0.042584024 -0.11350954 0.12604944 0.12484347 -0.019169962 0.054569
0.12170366 0.10645767 -0.047392566 0.063294366 0.028606197 -0.026578847 0.021652857 0.00049207016
0.10239079 0.09552912 0.054115456 -0.03836185 0.008969699 -0.06376743 7.165587e-05 0.021215899
0.05989177 -0.04904092 -0.11748877 -0.12731497 0.093262255 0.0875748 0.020942062 -0.06197179
-0.12981567 -0.17901051 0.061715018 -0.054526106 0.06626403 0.15108798 0.009289466 -0.05579106
-0.0054304306 -0.0021835552 0.016145008 -0.042190894 -0.0757673 -0.07644642 0.056343555 -0.03125158
-0.122946255 0.105841696 -0.015794557 0.19002102 -0.020550061 -0.038438186 -0.062392168 -0.01828798
0.09429465 -0.15356915 -0.09524237 0.041137163 0.072183125 -0.082003474 -0.20888965 0.06186103
-0.12436063 -0.07399197 -0.08068112 0.0115349805 -0.022576513 0.11584635 0.17687643 -0.06441797
0.100862496 0.07281457 0.036766324 0.010967066 0.06922301 0.027096659 -0.112799264 0.11311085
0.14319183 0.1527003 -0.09514541 -0.06532279 -0.04828962 -0.074717514 0.08318717 -0.04164097
0.07349299 -0.017178548 -0.047965556 0.13889581 -0.00045119267 0.063896894 -0.07533701 -0.039435036
0.0031694009 0.009351164 -0.2768608 -0.23405631 0.1105635 -0.06475425 0.11244562 -0.09921537
0.14966992 -0.118920244 -0.0070830453 0.05688099 0.074604206 0.20311794 0.023998532 0.044670805
0.004369455 0.09352363 -0.099976994 -0.04643078 0.11718629 -0.043724332 0.020818217 -0.019281125
0.085279934 -0.057492256 0.011521789 0.06986082 0.0015610907 -0.086318254 0.12089773 0.07920694
-0.18633392 0.06971574 0.1733527 0.11098962 -0.043461125 0.072692566 0.026411219 0.04242209
0.0036975916 -0.026353918 0.08955097 0.045372833 -0.010571249 0.12893136 -0.05273977 0.1449066
0.07182485 -0.05530961 -0.024467275 0.085940704 -0.124104895 -0.049586963 -0.12504825 0.042341895
0.057010334 -0.01387594 -0.032405388 0.032521304 0.01140145 0.00805258 -0.10688828 0.037302844
0.012884646 0.0018389005 0.09981875 0.05884643 0.017902259 0.14327237 0.06477331 0.21072711
-0.03838402 0.033029567 -0.023224771 0.039080717 0.119930446 0.012887292 -0.03649834 -0.011551935
-0.048280265 -0.031472642 0.11407259 -0.029205335 0.020204788 0.13615908 0.083664335 0.0461366
-0.097297885 0.20243107 0.11610418 -0.016080083 -0.03671879 -0.009076948 0.1285806 0.03345804
-0.0015531763 0.17360878 0.010501462 -0.015016111 -0.12957992 0.09414469 -0.003185879 0.14895442
-0.02624222 0.033438746 0.016948828 -0.116542205 0.018405268 0.031059131 0.081529215 -0.0860031
0.08138171 0.054709632 -0.0029288179 -0.1150694 0.059265513 0.043655556 -0.07245871 -0.030831937
-0.008377847 -0.021282122 0.01249618 0.010170401 0.06125381 0.0686863 0.028133096 -0.10577348
-0.002243693 0.10611289 0.0152450325 0.07818498 0.13616107 0.010588457 -0.04317597 -0.20905727
0.008182316 -0.026403306 0.05960833 -0.014614527 -0.05544257 -0.13046595 0.15629871 0.07916674
