Assets/TFModels/CrossRoad 1.onnx (onnx, 74175 bytes, 7 tensors)

action_model._continuous_distribution.log_sigma f4 [1, 2]
0	0x3dc3ac9a	0.095544055
1	0xbd39b652	-0.04533989

action_model._continuous_distribution.mu.bias f4 [2]
0	0xbafc8086	-0.0019264377
1	0x3b35654b	0.0027678784

action_model._continuous_distribution.mu.weight f4 [2, 128]
0	0xbcdd74a6	-0.027033161
1	0x3cd51832	0.026012514
2	0x3c7b3129	0.015331545
3	0x3d129dbb	0.035794955
4	0xbc07f8bc	-0.008299049
5	0xbd44e5db	-0.04807077
6	0xbd195338	-0.03743288
7	0x3cdd354c	0.027002953
8	0xbd87b863	-0.06626966
9	0xbccb9510	-0.024851352
10	0x3cd0f74c	0.025508545
11	0xbd8739b3	-0.06602802
12	0xbd83e081	-0.06439305
13	0x3c49453d	0.012284574
14	0x3d006afa	0.03135202
15	0x3d2fa608	0.04288295
16	0xbc9433cf	-0.01809111
17	0xbd289836	-0.041160785
18	0xbd81a47f	-0.06330203
19	0xbc9d391b	-0.01919227
20	0xbca33c08	-0.019926086
21	0x3c5046eb	0.012712221
22	0xbcd43336	-0.025903326
23	0xbc31b707	-0.01084686
24	0x3c9e86a7	0.019351317
25	0x3d34bca1	0.044125203
26	0xbcb80bd5	-0.02246658
27	0xbbf67d46	-0.007522258
28	0x3ab25168	0.0013604583
29	0x3c8493cf	0.016183762
30	0x3c600134	0.013672162
31	0xbd1a11fc	-0.037614807
32	0x3c3a8707	0.011384732
33	0x3c64e28a	0.013970027
34	0x3d2dfa30	0.042474926
35	0x3c6474b0	0.013943836
36	0x3b8521d0	0.0040628687
37	0x3cdd1955	0.026989618
38	0xbb9950b0	-0.004678808
39	0xbd014158	-0.031556457
40	0x3c2449bd	0.010027346
41	0x3ca0a5d6	0.019610327
42	0xbce6a1c6	-0.028153311
43	0xbb387d13	-0.0028150722
44	0xbd8a606b	-0.067566715
45	0x3d00fece	0.031493
46	0xbcc74872	-0.024326537
47	0x3c90f2e8	0.017693952
48	0x3d18aaa2	0.037272103
49	0x3c14e184	0.00908697
50	0xbce9c521	-0.028536381
51	0x3cdd35ea	0.027003247
52	0xbc978177	-0.01849435
53	0x3cd9b6d2	0.026576433
54	0xbb9cf6c0	-0.004790157
55	0x3c32a94f	0.010904624
56	0xbb58f649	-0.0033105782
57	0x3cc635cf	0.02419558
58	0xbc0b2749	-0.008493253
59	0x3c080e23	0.008304152
60	0x3a37370b	0.0006989098
61	0xbd3807a0	-0.044929147
62	0x3cd7869b	0.026309302
63	0xbc4a1b7b	-0.012335653
64	0xbb984477	-0.0046468335
65	0x3bc0e133	0.005886221
66	0x3bce8042	0.0063019106
67	0x3c4cc5d6	0.01249834
68	0xbd52d1ef	-0.05146974
69	0x3bfcb4de	0.0077119907
70	0x3bfaae00	0.007650137
71	0xbd93e65b	-0.07221671
72	0x3d19d399	0.03755531
73	0xbd79a910	-0.060952246
74	0x3d2d6022	0.042328008
75	0x3cadcde2	0.021216337
76	0x3ccbc49f	0.02487403
77	0xbcf33e72	-0.029692862
78	0xbcc039bc	-0.02346503
79	0x3c8bb075	0.017051915
80	0xbd6e5c88	-0.058193713
81	0xbc3ee2f1	-0.011650787
82	0xbd103e22	-0.035215504
83	0xbdb35b79	-0.087576814
84	0xbc3cbbde	-0.0115194
85	0xbda44a4b	-0.08021983
86	0xbcc0f4da	-0.023554254
87	0x3d6bb20e	0.057542853
88	0x37e14813	2.6855652e-05
89	0xbc0320f5	-0.008003463
90	0x3c53be31	0.012923763
91	0xbd80bc23	-0.06285884
92	0x3b72891d	0.0037007995
93	0xbd61c878	-0.055122823
94	0xbd0dd7fe	-0.034629814
95	0xbbacc998	-0.0052730553
96	0xbd6b308c	-0.057419345
97	0xbcd25e27	-0.025679661
98	0xbcd5ec9c	-0.0261138
99	0x3d049190	0.03236538
100	0x3ce5ae56	0.028037231
101	0x3c6668d5	0.01406308
102	0xbcc330d0	-0.023826987
103	0x3d37ac32	0.044841953
104	0xbd2bc88f	-0.041939314
105	0xbcb45107	-0.022011293
106	0xbad57585	-0.0016285634
107	0x3b507367	0.0031807066
108	0xbcabd829	-0.020977097
109	0x3beb5659	0.0071819243
110	0x3d808d8f	0.06277
111	0x3cafd514	0.021463908
112	0xbd776eae	-0.060408287
113	0xbc92fa27	-0.017941548
114	0x3c9a249e	0.018816289
115	0x3cb780c4	0.022400267
116	0x3d012704	0.03153135
117	0xbc700c4e	-0.014651371
118	0xba676573	-0.0008827068
119	0xbd3a1cf6	-0.045437776
120	0x3d44276c	0.047889158
121	0x3c05c4a5	0.0081645595
122	0xbccbd7a8	-0.024883106
123	0x3c37bfca	0.01121516
124	0xbc958950	-0.018253952
125	0x3b996f48	0.004682455
126	0x3d14e741	0.036353353
127	0x3d28d91f	0.041222688
128	0xbba7086f	-0.005097441
129	0xbd1df291	-0.038561407
130	0x3d9a2f43	0.07528546
131	0x3d521769	0.051291857
132	0xbcd7db2f	-0.026349632
133	0xbd76924e	-0.06019812
134	0xbbfc0fad	-0.0076922984
135	0xbdbc158c	-0.09183797
136	0xbd5a4007	-0.053283717
137	0x3bdb35be	0.006689756
138	0xbd3d138a	-0.046161212
139	0x3d4941fd	0.049135197
140	0x3d3bafa6	0.04582181
141	0x3ca2a35e	0.01985329
142	0xbd3c97c9	-0.04604319
143	0x3cfedf79	0.03111242
144	0x3d34743b	0.04405616
145	0x3d112bc4	0.03544213
146	0xbafef7f9	-0.0019452564
147	0xbdc8c80a	-0.098037794
148	0xb8e8aec6	-0.00011095176
149	0xbd221177	-0.039567437
150	0xbb38b087	-0.002818139
151	0x3cde3e35	0.027129272
152	0xbcc68412	-0.024232898
153	0xbcfba666	-0.030718993
154	0x3d1abde3	0.037778746
155	0x3d8cde8f	0.06878387
156	0x3d88d331	0.066809066
157	0x3d59e98f	0.053201254
158	0x3cafde7f	0.0214684
159	0xbd2d8a3c	-0.04236816
160	0xbd4859f7	-0.048913922
161	0x3d5c1521	0.053731088
162	0xbc9d03ff	-0.019166945
163	0xbc6886dc	-0.014192309
164	0x3d1e70e6	0.038681887
165	0x3d084ee0	0.033278346
166	0x3cedfa66	0.029050063
167	0x3d7250c3	0.05915905
168	0xbd413f7c	-0.047179684
169	0xbcfeef2f	-0.031119911
170	0x3abe2813	0.0014507793
171	0xbd8a5ec6	-0.06756358
172	0xbc3af8f4	-0.011411894
173	0x3d08b90c	0.0333796
174	0x3d946a7b	0.07246872
175	0x3d5a988b	0.053368133
176	0xbd6e050d	-0.058110286
177	0x3bd86631	0.006603979
178	0x3cb361a8	0.021897152
179	0xbd836ce0	-0.06417251
180	0xbb3806da	-0.0028080256
181	0xbcfddb1d	-0.03098827
182	0xbc4331f8	-0.011913769
183	0xbd27ac64	-0.04093589
184	0x3cd64066	0.026153754
185	0xbd7a264b	-0.061071675
186	0x3c80bec3	0.015715962
187	0xbda17941	-0.078844555
188	0xbd875081	-0.06607152
189	0xbd680d58	-0.05665335
190	0x3d0700d2	0.032959767
191	0x3cf13dd7	0.029448433
192	0x3d81b5bd	0.06333492
193	0xbac62c90	-0.0015119482
194	0xbd335399	-0.043780897
195	0x3d987750	0.07444632
196	0xbd0e20c4	-0.034699216
197	0x3c18b238	0.009319834
198	0x3cac03b5	0.020997861
199	0x3d235c66	0.03988304
200	0xbd00d175	-0.031449754
201	0x3cc992f1	0.0246062
202	0xbd815dc9	-0.06316716
203	0x3d396741	0.045264486
204	0x3b88c81c	0.0041742455
205	0x3d7bc56d	0.061467577
206	0xbd3d4922	-0.046212323
207	0xbd712a58	-0.058878273
208	0x3d855df2	0.06512059
209	0x3c97c692	0.018527303
210	0x3d35af59	0.044356678
211	0x3c8d167e	0.01722264
212	0x3d30161f	0.042989846
213	0x3d20e314	0.03927906
214	0x3d30131e	0.04298698
215	0xbceea393	-0.029130733
216	0xbd4899a6	-0.048974656
217	0xbd308519	-0.04309568
218	0xbd04161d	-0.03224765
219	0x3da0a347	0.07843643
220	0x3cc6695a	0.024220157
221	0x3c06a668	0.008218385
222	0x3d05cfe7	0.032668974
223	0x3bda8382	0.006668509
224	0xbd1d3da6	-0.03838887
225	0xbd815ed7	-0.063169174
226	0x3d2d9750	0.04238063
227	0xbd76f061	-0.060287837
228	0xbba810ce	-0.0051289564
229	0xbcf5ed22	-0.0300203
230	0xbc8a1986	-0.016857874
231	0xbbfb5c88	-0.0076709427
232	0xbd672db1	-0.05644006
233	0x3d8302d9	0.063970275
234	0x3d3db579	0.046315644
235	0x3d025ea6	0.031828545
236	0x3d019a49	0.03164128
237	0xbd84e27e	-0.064885125
238	0x3d0fce0e	0.03510862
239	0xbcc70f32	-0.024299238
240	0xbcd0e00e	-0.025497463
241	0xbcc083b3	-0.0235003
242	0xbd0a66c7	-0.033789422
243	0x3d99d934	0.07512131
244	0xbd9f5553	-0.07779946
245	0xbd9df38e	-0.0771247
246	0x3da759ce	0.08171426
247	0x3c505aac	0.01271693
248	0x3d2d126c	0.042253897
249	0x3d7613f0	0.060077608
250	0xbd8edcef	-0.069757335
251	0xbd40129b	-0.046892744
252	0x3b3d54b2	0.0028889594
253	0xbc4dc4f5	-0.012559165
254	0xbd546018	-0.051849455
255	0xbd69a2d4	-0.05704005

network_body._body_endoder.seq_layers.0.bias f4 [128]
0	0x3acc9709	0.0015608977
1	0x3ca98793	0.02069453
2	0x3c8c66ec	0.01713892
3	0xbabaeff1	-0.0014262182
4	0x3ca0e28e	0.01963928
5	0xbc7e79d3	-0.015531975
6	0x3c2cd02c	0.010547679
7	0x3c2bdee7	0.010490156
8	0x3c132bbc	0.008982595
9	0x3bf3f2b1	0.0074447026
10	0x3c29038b	0.010315786
11	0x3c491b9f	0.012274652
12	0xbcb413a2	-0.021982018
13	0x3cf44fa2	0.029823128
14	0x3d3b240e	0.04568868
15	0x3d02583e	0.031822436
16	0xbc7bc0d7	-0.015365801
17	0x3d7962fb	0.06088541
18	0x3cdee993	0.027210986
19	0x3a16401e	0.00057316
20	0xbba9874b	-0.005173599
21	0x3c44e325	0.012017046
22	0x3cb5cf98	0.022193715
23	0xbc97b493	-0.018518722
24	0x3bd3ab67	0.0064596417
25	0x3c16e0a8	0.009208836
26	0x3d13c328	0.036074787
27	0x3ca9529f	0.02066928
28	0x3d0a3d50	0.03374988
29	0x3d181632	0.037130542
30	0x3d20a2b2	0.03921766
31	0xbbe02f42	-0.006841571
32	0x3cd2979a	0.025707055
33	0xbb5e1b06	-0.003389062
34	0x3cceeb8c	0.025258802
35	0xbbfd9f39	-0.007739928
36	0x3b367cd4	0.00278454
37	0xbbbcf362	-0.005766318
38	0x3c61e1dd	0.01378676
39	0x3c94ebef	0.018178908
40	0x3d0263a4	0.031833306
41	0xbaa9ada3	-0.0012945425
42	0x3ce134d5	0.027491013
43	0x3c18c118	0.009323381
44	0x3d6809fc	0.056650147
45	0x3c7858b5	0.015157868
46	0x3d5e436c	0.054263517
47	0xbcd2d356	-0.025735538
48	0x3af87883	0.0018956814
49	0x3cd63676	0.026149016
50	0x3d31824f	0.043337163
51	0x3cd44497	0.025911612
52	0x3ccf37fd	0.025295252
53	0x3d1f5d3f	0.038907286
54	0x3c352c19	0.011057877
55	0x3cd8d0bf	0.026466725
56	0x3d842829	0.064529724
57	0x3ce485fa	0.027895916
58	0xbb6fc621	-0.00365866
59	0x3ca596e8	0.02021356
60	0x3c0f9077	0.00876247
61	0xbb992b75	-0.00467437
62	0xbd8b9a45	-0.06816534
63	0x3baa4997	0.005196761
64	0xbc3bc2a8	-0.011459984
65	0x3cb1128f	0.021615295
66	0xbac0b582	-0.0014702531
67	0x3d0669e3	0.032815825
68	0x3d401673	0.04689641
69	0x3cb8c6d1	0.02255574
70	0xbabe8bbd	-0.0014537495
71	0x3c91e2f1	0.01780841
72	0x3b5d9c5d	0.0033815124
73	0x3c3a7781	0.011381031
74	0x3a5a8840	0.0008336343
75	0x3b9f947e	0.0048699966
76	0xb9d475af	-0.00040523472
77	0x3cc6d087	0.024269355
78	0xbadbb91e	-0.0016763543
79	0xbc832176	-0.016007166
80	0x3c42fd2e	0.011901183
81	0x3cc463c4	0.023973353
82	0x3d8b836a	0.068121746
83	0x3b68270a	0.003542366
84	0x3b637f04	0.0034713158
85	0x3bc6cb4e	0.0060667163
86	0xbcbf6c4a	-0.023367066
87	0xbcc9df75	-0.024642685
88	0x3cf5a6c5	0.029986748
89	0x3bb1d652	0.0054271603
90	0x3d0895e4	0.03334607
91	0xbc120480	-0.008912206
92	0x3c019f5f	0.007911532
93	0xbac50b0a	-0.0015033197
94	0x3ca9befb	0.02072095
95	0x3c1983d9	0.009369814
96	0x3c39bba7	0.011336244
97	0x3db09c49	0.08623559
98	0xbd3e4d21	-0.046460275
99	0x3d0e2015	0.034698565
100	0xbce7908d	-0.02826717
101	0x3d0f528e	0.03499084
102	0x3bac96f9	0.005267021
103	0x3d06d504	0.03291799
104	0xbd694972	-0.05695481
105	0x3d4f6004	0.050628677
106	0x3d83865c	0.064221114
107	0x3cc34d75	0.023840645
108	0x3d110cb8	0.03541252
109	0x3b1459b7	0.0022636482
110	0x3da7a444	0.08185628
111	0x38291800	4.031509e-05
112	0x3cc2c625	0.023776123
113	0x3d323318	0.043505758
114	0x3cde93b8	0.027170047
115	0x3c90e507	0.017687334
116	0x3d33ecb0	0.043926895
117	0x3d47d3e2	0.04878605
118	0xbbb5bb82	-0.0055460343
119	0x3c88826c	0.016663752
120	0x3d1e49bf	0.03864455
121	0x3c95f00e	0.018302944
122	0x3cf07c3e	0.029356118
123	0x3c622858	0.013803564
124	0xbd1150c7	-0.035477426
125	0xbc92eda2	-0.017935578
126	0xbb90ad37	-0.00441518
127	0x3d40f712	0.047110625

network_body._body_endoder.seq_layers.0.weight f4 [128, 9]
0	0xbe664263	-0.22486262
1	0xbd05f020	-0.032699704
2	0xbe7d9770	-0.247648
3	0xbd1def74	-0.03855844
4	0xbdc0cfec	-0.09414658
5	0x3e0c7ed9	0.13720264
6	0x3f01bd0e	0.506791
7	0xbe8105e0	-0.25199795
8	0x3e8ec2f5	0.27883115
9	0x3ddf5b01	0.109060295
10	0xbe256556	-0.16151938
11	0xbea33878	-0.3187902
12	0xbee48a6f	-0.44636866
13	0x3eb476fc	0.35247028
14	0xbe39d42e	-0.18147346
15	0x3e33030a	0.17481628
16	0x3e3a3fce	0.18188402
17	0xbe8f2995	-0.27961412
18	0x3eb23e24	0.34813035
19	0x3e1d599f	0.15366219
20	0xbe9441b1	-0.2895637
21	0xbde70aec	-0.1128138
22	0x3e9d03ee	0.3066706
23	0x3d9126d1	0.07087482
24	0xbc1a7492	-0.009427207
25	0xbea442c2	-0.32082182
26	0xbea2f5be	-0.3182811
27	0xbeabd6bd	-0.3356227
28	0xbdb6ee22	-0.08932139
29	0x3e47989c	0.1949181
30	0xbf0df054	-0.55444837
31	0x3d22e7a0	0.039771676
32	0x3e8dd1a7	0.27699015
33	0x3ecb647a	0.39725095
34	0x3ce2de62	0.027693931
35	0x3e4e996d	0.20175715
36	0xbe7d50cc	-0.24737853
37	0xba80ccb2	-0.0009826629
38	0x3e72cf0b	0.23711793
39	0xbea3b323	-0.31972608
40	0xbf09225c	-0.53568053
41	0xbef7a0d4	-0.4836489
42	0x3e3642e2	0.17798951
43	0x3e7d0b10	0.24711251
44	0x3e9481c9	0.29005268
45	0xbd399a5f	-0.045313235
46	0xbdf27e7a	-0.1184053
47	0xbdc78c6a	-0.09743579
48	0x3ec12d62	0.37729937
49	0x3dd2ee78	0.102993906
50	0xbb5cc608	-0.0033687372
51	0x3de04ed7	0.109525375
52	0x3e1974bc	0.14985937
53	0xbd68b14c	-0.05680971
54	0x3e8b1650	0.2716546
55	0xbf06d8b9	-0.5267444
56	0xbea9b6a9	-0.3314717
57	0x3f1985c6	0.5996975
58	0xbf247ae2	-0.64250004
59	0x3dd5dd0b	0.10442551
60	0xbc1deb76	-0.009638658
61	0x3d4e762e	0.050405674
62	0x3db8efd3	0.09030118
63	0xbe93c735	-0.2886292
64	0x3ed076ac	0.4071554
65	0xbe059b8e	-0.1304762
66	0xbf0abc72	-0.54193795
67	0xbb949b47	-0.004535112
68	0xbe0c1c89	-0.1368276
69	0xbeea3ebc	-0.45750988
70	0x3dd692da	0.104772285
71	0x3e7d30dd	0.24725671
72	0x3e1a015d	0.15039583
73	0x3e0ff946	0.14059934
74	0x3e4c097b	0.19925492
75	0xbf0f579f	-0.55993074
76	0xbe224411	-0.15846278
77	0x3dabdc09	0.08391578
78	0xbdf386cd	-0.118909456
79	0xbe5706b0	-0.20998645
80	0x3ed24271	0.41066316
81	0xbb810663	-0.003937529
82	0x3eee04ba	0.4648798
83	0xbec53295	-0.38515154
84	0xbd86680e	-0.065628156
85	0x3e8370c6	0.25671977
86	0xbf08df58	-0.53465796
87	0x3ec8f793	0.39251384
88	0x3e2d3270	0.16913772
89	0xbeb8c769	-0.36089638
90	0xbd0f538b	-0.034991782
91	0x3de7d2cc	0.11319503
92	0xbce87043	-0.028373843
93	0xbea6e15b	-0.32593808
94	0xbabc178a	-0.0014350277
95	0x3f8e399f	1.1111335
96	0x3e00e36c	0.12586755
97	0xbd4c76d3	-0.049918007
98	0x3f84c4bc	1.0372539
99	0x3cd3e7b0	0.025867313
100	0xbd3e44f7	-0.04645249
101	0x3ece3a15	0.40278688
102	0x3f0b73ac	0.54473376
103	0xbe342fce	-0.17596361
104	0xbd10fbdd	-0.035396446
105	0xbeeaeb6b	-0.45882735
106	0xbef9d6ff	-0.48796842
107	0x3f515c05	0.81781036
108	0xbed8de65	-0.42357174
109	0x3dcf8837	0.10133403
110	0xbe054e00	-0.13018036
111	0xbf222bd5	-0.6334813
112	0xbf29c87f	-0.6632156
113	0xbed3d982	-0.41376883
114	0x3e4eba49	0.2018825
115	0x3deda5fc	0.11603925
116	0x3ebea6cb	0.37236628
117	0x3ec28721	0.3799372
118	0x3abbddb7	0.0014333044
119	0x3f4ad253	0.7922718
120	0xbd3a3b7a	-0.045466878
121	0xbe4a46e7	-0.1975361
122	0x3e4e43a6	0.20142993
123	0xbf017393	-0.5056698
124	0x3e562c97	0.20915447
125	0x3e13267d	0.14370151
126	0x3e579b1d	0.21055265
127	0xbd552f0c	-0.05204682
128	0x3d29abcf	0.041423615
129	0xbf0a4739	-0.5401493
130	0x3e8cead4	0.2752291
131	0xbe370aa4	-0.17875153
132	0x3d615d17	0.055020418
133	0xbf038906	-0.51380956
134	0x3eafb987	0.34321234
135	0x3f27de70	0.6557379
136	0x3ef56cdf	0.47934625
137	0xbe40018f	-0.18750595
138	0x3d012e0a	0.031538047
139	0xbe005df7	-0.12535845
140	0x3e7813d4	0.24226314
141	0x3ef38167	0.47559664
142	0xbdf893b0	-0.12137544
143	0xbf141240	-0.5784035
144	0xbd915979	-0.07097144
145	0x3f2bfcf3	0.67182845
146	0xb9eab744	-0.00044768502
147	0x3e404d4c	0.18779486
148	0xbedd5370	-0.4322772
149	0xbce51e6b	-0.027968606
150	0xbe6f2447	-0.23353682
151	0xbe6f3c4e	-0.23362848
152	0x3ea5ab14	0.32357085
153	0xbab15222	-0.0013528506
154	0xbecbb058	-0.39782977
155	0x3f2bb29b	0.67069405
156	0x3e95648a	0.29178268
157	0x3e14fa39	0.14548577
158	0xbe492192	-0.19641712
159	0x3ee49235	0.44642797
160	0x3be197f2	0.0068845684
161	0x3e06c61e	0.13161513
162	0x3d8543a7	0.06507044
163	0x3edc2dcc	0.4300369
164	0xbe4572f0	-0.19282126
165	0x3e5d0a2d	0.21585913
166	0xbf04f72e	-0.51939666
167	0x3e3a4c2c	0.1819312
168	0xbe614e72	-0.22002581
169	0xbe7d013b	-0.247075
170	0x3eb0e557	0.34549972
171	0xbf024058	-0.5087943
172	0xbee58024	-0.44824326
173	0x3d93788b	0.07200726
174	0xbe7a7248	-0.24457657
175	0xbe3a7950	-0.1821034
176	0x3ecf698a	0.40510207
177	0xbcc700cc	-0.024292372
178	0xbe696e68	-0.22796023
179	0xbd16f791	-0.03685719
180	0x3ec9f1b9	0.39442232
181	0xbf102b54	-0.56316113
182	0xbed9995d	-0.4249982
183	0x3ec5f7c1	0.38665584
184	0x3e9340f0	0.2876048
185	0x3e26bfc8	0.16284096
186	0x3d617259	0.05504069
187	0xbf05cf74	-0.52269673
188	0xbf16da90	-0.5892725
189	0xbe105eff	-0.14098738
190	0x3f073bf2	0.52825844
191	0x3ed73c30	0.42038107
192	0x3e9e3663	0.3090087
193	0x3e00e935	0.12588961
194	0xbeff93ae	-0.49917358
195	0xbeadee8b	-0.33971056
196	0xbe8fdb46	-0.2809698
197	0xbe2c5ce0	-0.16832304
198	0x3eb675c6	0.3563673
199	0x3c496caa	0.012293974
200	0x3dddb779	0.1082601
201	0xbec1b8a0	-0.3783617
202	0x3d3bb532	0.0458271
203	0xbef35427	-0.4752514
204	0x3e583ec2	0.2111769
205	0xbeadb278	-0.33925223
206	0xbe00be8c	-0.12572688
207	0x3e1c755e	0.15279147
208	0xbed67de8	-0.41892934
209	0xbdee7973	-0.11644258
210	0x3d81674f	0.06318533
211	0xbeb724ff	-0.35770413
212	0x3e8e0786	0.27740115
213	0x3e2c8cdc	0.16850609
214	0xbe963672	-0.29338413
215	0xbe8036bd	-0.25041762
216	0x3e854945	0.26032463
217	0xbeadcb63	-0.33944234
218	0x3f38fec5	0.7226375
219	0x3e5f3c28	0.21800292
220	0x3ea748e0	0.32672787
221	0x3e03e83b	0.12881558
222	0xbf7df053	-0.9919483
223	0x3f108d68	0.5646577
224	0x3f339e49	0.701634
225	0xbf1881d0	-0.5957308
226	0x3f00623a	0.5014988
227	0xbe2bbbba	-0.16770831
228	0x3e8d85ae	0.27641052
229	0xbe27d9fd	-0.1639175
230	0x3e0dc957	0.13846336
231	0xb8bc6baf	-8.984596e-05
232	0x3df6cb82	0.12050535
233	0x3d91cc94	0.07119098
234	0x3f17a603	0.5923769
235	0x3f041e9c	0.51609206
236	0x3dfb83f9	0.12281031
237	0x3d93f82b	0.07225069
238	0x3eb55350	0.35415125
239	0xbe9edf32	-0.3102966
240	0xbe9d7324	-0.30751908
241	0xbe6bcfec	-0.23028535
242	0xbebdc60d	-0.37065163
243	0xbe31aeb5	-0.17351802
244	0xbe6f75d3	-0.2338479
245	0x3f2a1f82	0.6645433
246	0x3d288611	0.04114348
247	0xbd9b93c0	-0.075965405
248	0x3e754d3f	0.23955248
249	0xbe083c44	-0.1330424
250	0x3e605116	0.21905932
251	0x3ed70133	0.41993102
252	0x3f371143	0.71510714
253	0x3e1d76fa	0.15377417
254	0xbc151add	-0.009100643
255	0xbeac0da1	-0.33604148

network_body._body_endoder.seq_layers.2.bias f4 [128]
0	0x3b6fb1dc	0.0036574518
1	0xbaff2492	-0.0019465855
2	0x3cce2580	0.025164366
3	0x3c3e7b3d	0.011626062
4	0x3c4bb7ee	0.012433989
5	0x3d249d94	0.04018934
6	0xb90d7a6d	-0.00013492415
7	0x3ca2bc58	0.0198652
8	0x3c969913	0.018383538
9	0x3b696ca2	0.0035617729
10	0x3c6b9b1c	0.014380243
11	0x3c948a57	0.018132372
12	0x3c9daaba	0.019246448
13	0xbb9b97be	-0.0047483137
14	0x3cbea090	0.023269922
15	0x3afe905f	0.0019421688
16	0x3ca58290	0.020203859
17	0x3cc03b94	0.023465909
18	0x3c3563f2	0.011071192
19	0x3c429006	0.011875158
20	0x3bbb1fb7	0.005710568
21	0xbb97a5d7	-0.004627924
22	0x3bd04b92	0.006356665
23	0xbb4b9b0c	-0.0031067757
24	0x3aa8d2d8	0.0012880219
25	0x3bae3775	0.0053166696
26	0x3c50a40a	0.012734422
27	0x3ca58237	0.020203693
28	0x3ca352d8	0.019936964
29	0x3b0c1ebc	0.0021380624
30	0x3a0ee22f	0.0005450574
31	0x3a95d0e6	0.0011430054
32	0x3cbcbed2	0.023040209
33	0x3c85b37d	0.016320938
34	0x3b9bd8c6	0.004756066
35	0xbcce5062	-0.025184814
36	0x3c06b6da	0.008222306
37	0x3bb5f7c6	0.0055532185
38	0x3b49dd39	0.0030802025
39	0x3cfc00e1	0.030762138
40	0x3cc46da0	0.023978055
41	0xbc36b19b	-0.011150743
42	0x3d06c8c3	0.032906305
43	0x3cc845ed	0.024447406
44	0x3c9b1156	0.018929165
45	0x3bfb22e4	0.0076640714
46	0x3d0df3b3	0.034656238
47	0x3a742e73	0.0009314783
48	0x3cbef939	0.023312198
49	0xbb91e418	-0.0044522397
50	0x3b708fef	0.0036706885
51	0x3c9b7410	0.018976241
52	0xbb15988d	-0.0022826523
53	0x3be0863e	0.0068519404
54	0x3c7ae04b	0.015312265
55	0x3adbd72d	0.0016772501
56	0x3a881779	0.0010382972
57	0x3c683b87	0.014174349
58	0xbb1c0a3f	-0.0023809818
59	0x3c9b5218	0.018960044
60	0x3b796f0f	0.003806058
61	0x3c6c540c	0.014424335
62	0x3bbe99e6	0.005816686
63	0xba79837f	-0.00095181906
64	0x3ccac000	0.024749756
65	0xbc27f8c0	-0.010252178
66	0x3b633870	0.003467109
67	0x3c5c0501	0.013428927
68	0x3a69f886	0.00089252775
69	0xbbb50d88	-0.0055252947
70	0x3b6f28ec	0.0036492897
71	0x3c8458f2	0.016155694
72	0x3b802b34	0.0039114
73	0x3bcd6a3f	0.006268769
74	0x3c631f4c	0.013862442
75	0x3c40ae49	0.011760303
76	0xbcd238b0	-0.025661796
77	0x3ccfc591	0.025362762
78	0x3bcdc49e	0.006279542
79	0x3cdd59b3	0.027020311
80	0x3cc23cc7	0.023710622
81	0x3ccedf5f	0.025252996
82	0x3c5c70cc	0.013454627
83	0x3d17f15c	0.037095413
84	0x3cc8ce43	0.024512416
85	0x3c9ee911	0.019398244
86	0x3c81173d	0.015758151
87	0x3bc0fe19	0.005889666
88	0x3c107d3e	0.008818923
89	0x3c1c6bd3	0.009547192
90	0x3b9fc320	0.0048755556
91	0x3cc9af8d	0.024619842
92	0x3a446a58	0.0007492653
93	0x3d3ea384	0.04654266
94	0x3ce8a960	0.028401077
95	0xbb89bed8	-0.0042036586
96	0x3c4e3f3d	0.012588319
97	0x3c95e672	0.018298361
98	0x3c8a5c76	0.016889792
99	0x3d32fca3	0.043697964
100	0x3bf91043	0.0076008155
101	0xbafb2807	-0.0019161709
102	0x3ba87c40	0.005141765
103	0x3b0d35f2	0.0021547046
104	0x3c14df16	0.009086391
105	0x3c266d65	0.010157918
106	0x3a24e5e1	0.0006290358
107	0x3b16ccfe	0.0023010368
108	0xb9b0717d	-0.0003365389
109	0x3c94e452	0.018175278
110	0x3bf22476	0.0073896004
111	0xbcc104d2	-0.023561869
112	0x3ccb257e	0.024798151
113	0xba6d01d9	-0.0009041108
114	0x3b8cba63	0.00429468
115	0x3cba5d65	0.022749612
116	0x3be7511e	0.0070592305
117	0x3c8b833a	0.017030347
118	0x3c843aa4	0.016141243
119	0x3d2cdbff	0.042201992
120	0x3ba1ac6c	0.0049338844
121	0x3c86e869	0.016468244
122	0x3c672c11	0.014109627
123	0x3c962c89	0.018331783
124	0x3b8760f5	0.004131431
125	0xbb7c8608	-0.0038532037
126	0x3c31e5d2	0.010858016
127	0x3b588eb2	0.0033044037

network_body._body_endoder.seq_layers.2.weight f4 [128, 128]
0	0xbd6c781a	-0.057731725
1	0xbc9dc977	-0.019261105
2	0x3d947473	0.072487734
3	0xbc151c74	-0.009101022
4	0xbdb656ab	-0.08903249
5	0xbcc8e9da	-0.024525572
6	0xbe20b0f7	-0.15692507
7	0xbe2dade1	-0.16960861
8	0x3c9a8e83	0.018866783
9	0xbd9363f8	-0.07196802
10	0xbd927547	-0.07151275
11	0xbe38c463	-0.18043666
12	0xbd006fc4	-0.031356588
13	0xbe06ce8c	-0.13164729
14	0x3d0ac7d2	0.03388197
15	0xbd80395d	-0.06260941
16	0x3c8f67fb	0.017505636
17	0xbe144389	-0.14478888
18	0x3db500cc	0.088380426
19	0x3cd73815	0.02627186
20	0xbd36ba6b	-0.044611376
21	0xbbd74f53	-0.0065707355
22	0xbdc9793d	-0.098375775
23	0x3dbc7011	0.092010625
24	0x3ca612f9	0.020272719
25	0x3dd6e906	0.104936644
26	0xbd799908	-0.060936958
27	0xbe37ad1d	-0.17937131
28	0xbd096436	-0.033542834
29	0x3d8f47a7	0.069960885
30	0x3db7a480	0.08966923
31	0xbdf17155	-0.117891945
32	0xbc8fa232	-0.017533395
33	0xbe5fb252	-0.21845368
34	0xbd8cb261	-0.068699606
35	0xbd8f07b6	-0.069838926
36	0x3e6083b0	0.21925235
37	0x3e4ad297	0.19806896
38	0xbcbca621	-0.023028435
39	0x3db31592	0.087443486
40	0xbca06746	-0.019580495
41	0xbca335d6	-0.019923132
42	0xbdab6e4a	-0.08370645
43	0xbc54a44d	-0.0129786255
44	0xbdef9ca1	-0.116997965
45	0xbd6aa97c	-0.05729054
46	0x3d6deb04	0.058085456
47	0x3dcf069d	0.10108683
48	0x3e427ce6	0.18992957
49	0xbd2f8f67	-0.04286137
50	0xbd64a0b8	-0.055817336
51	0xbd273469	-0.040821467
52	0xbc2e912d	-0.01065473
53	0xbd089af4	-0.0333509
54	0x3e08589a	0.13315049
55	0x3cd3ef51	0.02587095
56	0x3dd195c3	0.10233643
57	0xbdaca03c	-0.08429
58	0x3de28c43	0.11061909
59	0xbde24209	-0.110477515
60	0x3e426bd1	0.18986441
61	0xbd8d9ab8	-0.06914276
62	0x3d14f7c8	0.036369115
63	0xbd83954c	-0.064249605
64	0xbdb5c434	-0.088753134
65	0x3bada4be	0.00529918
66	0x3c08e081	0.008354307
67	0xbdc43e6e	-0.0958222
68	0x3cddee60	0.027091205
69	0xbd55ce33	-0.0521986
70	0xbda1bea4	-0.0789769
71	0xbc1d9b33	-0.009619522
72	0x3d13cdee	0.03608506
73	0x3e105c3b	0.14097683
74	0xbc21a857	-0.0098667955
75	0xbdf7a80e	-0.12092601
76	0x3d8808fe	0.0664234
77	0x3d805999	0.062670894
78	0x3bd78296	0.0065768464
79	0x3db15f2b	0.0866073
80	0xbd41da8c	-0.047327563
81	0xbcf9b0a2	-0.030479733
82	0xbd5fd617	-0.05464753
83	0x3a747ac4	0.0009326155
84	0x3bfaf905	0.00765908
85	0x3deba666	0.11506347
86	0x3ba46e95	0.005018065
87	0x3c8e4f93	0.017371928
88	0xbc15c886	-0.009142047
89	0x3d90cd05	0.07070354
90	0x3d87bef2	0.06628217
91	0xbd1cd418	-0.038288206
92	0xbcbffefd	-0.023437018
93	0xbd11ce92	-0.03559739
94	0xbda2d349	-0.07950456
95	0x3d338a1d	0.043832887
96	0xbdedc4f7	-0.11609834
97	0x3d506acf	0.05088311
98	0x3e0914da	0.1338686
99	0x3d01b944	0.031670824
100	0x3d52efda	0.05149827
101	0x3d1b50b7	0.037918773
102	0x3d230d18	0.03980741
103	0x3ce47288	0.027886644
104	0xbca6e7e8	-0.020374253
105	0x3e153138	0.14569557
106	0x3e72cb46	0.23710355
107	0xbd05e0bb	-0.032685023
108	0xbd08dad1	-0.033411805
109	0x3dc41d7e	0.09575938
110	0x3baac36f	0.005211286
111	0x3d805b2f	0.06267392
112	0xbd64b8fc	-0.055840477
113	0x3e0ce61e	0.13759658
114	0x3e1832f5	0.14863189
115	0x3d39752b	0.045277756
116	0x3e720af6	0.23636994
117	0xbca509b5	-0.02014623
118	0x3d52cd33	0.051465224
119	0xbddf712a	-0.10910256
120	0x3e52dc7b	0.20591919
121	0x3e08f3ec	0.13374299
122	0x3e097119	0.1342205
123	0xbdcc29e2	-0.09968926
124	0x3cad7efa	0.021178711
125	0x3e2079e1	0.15671493
126	0x3e180c19	0.14848365
127	0x3e6b337f	0.22968863
128	0x3c5a890b	0.013338338
129	0xbd374124	-0.044739857
130	0xbc281ed3	-0.010261255
131	0x3e015fa1	0.12634136
132	0xbd8c4e8a	-0.06850918
133	0xbe0b33f3	-0.13594036
134	0xbdb53b1a	-0.08849163
135	0x3d576765	0.05258884
136	0x3db64d46	0.089014575
137	0xbdf5883f	-0.119888775
138	0x3d3bb6ee	0.045828752
139	0xbd2c595b	-0.042077404
140	0x3c030ea9	0.007999101
141	0xbdc4466b	-0.09583744
142	0xbd35a4d8	-0.04434666
143	0xbdfa89a6	-0.122332856
144	0xbda4528a	-0.080235556
145	0xbdec9ed3	-0.11553731
146	0x3d0833c3	0.03325249
147	0x3c340754	0.010988075
148	0x3c3705b1	0.0111707905
149	0xbd096c20	-0.03355038
150	0x3e086de5	0.13323171
151	0x3d75eb85	0.060039062
152	0x3e1570d3	0.1459382
153	0x3b4aff49	0.0030974916
154	0xbd7420a2	-0.059601434
155	0x3c3898d8	0.01126691
156	0xbe543ae4	-0.2072559
157	0xbde1b395	-0.11020581
158	0x3c2df42c	0.010617297
159	0xbdda4bb7	-0.10658973
160	0xbe14e77b	-0.14541428
161	0x3e0535a9	0.13008751
162	0x3e122dbe	0.14275262
163	0x3d95486c	0.07289204
164	0x3dcb5d9c	0.09929964
165	0x3cc9225c	0.024552517
166	0x3d47d797	0.048789587
167	0xbd56c37f	-0.052432533
168	0xbe83a130	-0.25708914
169	0xbb172dfe	-0.0023068185
170	0xbbc4cc00	-0.006005764
171	0xbd402cf8	-0.046917886
172	0x3d48d6a9	0.04903284
173	0xbc68af91	-0.014202015
174	0xbd08f683	-0.033438217
175	0x3cb14a1f	0.021641789
176	0xbe46aa22	-0.19400838
177	0x3cd166a2	0.025561634
178	0xbd91eb9f	-0.07125019
179	0xbe2afb22	-0.16697362
180	0xbb124271	-0.0022317434
181	0xbd0a8814	-0.03382118
182	0xbd55d244	-0.052202478
183	0x3daf210c	0.08551225
184	0x3ce350e9	0.027748542
185	0xbc6c74e7	-0.014432169
186	0xbda8cf07	-0.08242612
187	0x3da969de	0.08272146
188	0xbc95cfec	-0.018287621
189	0x3c725ab7	0.014792136
190	0xbd7fdfaa	-0.062469162
191	0xbd7d49ae	-0.061837845
192	0xbd994693	-0.07484164
193	0xbd8a3307	-0.06748014
194	0xbcfc5f3f	-0.030807136
195	0xbde629ed	-0.112384655
196	0x3d0c6734	0.03427811
197	0x3d8ad179	0.06778235
198	0x3d9181d3	0.0710484
199	0xbcad0ef7	-0.0211253
200	0xbdd423da	-0.10358401
201	0x3dd15a48	0.10222298
202	0xbe10d129	-0.14142288
203	0xbc3750d6	-0.011188706
204	0xbda8a563	-0.0823467
205	0x3dc50fc3	0.09622147
206	0x3db8655e	0.09003709
207	0x3dc11841	0.09428454
208	0xbda5a3d8	-0.08087891
209	0xbddc51e1	-0.10757805
210	0x3cfa2cdd	0.03053897
211	0x3b6778a8	0.003531972
212	0x3dccd681	0.10001851
213	0x3d748f0f	0.059706744
214	0x3ca070e8	0.019585088
215	0x3dc1a14b	0.09454592
216	0xbda8c6e8	-0.08241063
217	0x3da72bf8	0.08162683
218	0xbde2fc50	-0.11083281
219	0xbe0a0e6a	-0.13482061
220	0xbc2b3796	-0.010450264
221	0xbe187296	-0.14887461
222	0x3d90e13d	0.07074211
223	0x3d344325	0.044009347
224	0xbbed3c10	-0.007239826
225	0x3d87eb7b	0.06636711
226	0x3e0e23c2	0.13880828
227	0xbdcc7e87	-0.09985071
228	0xbcd141de	-0.025544103
229	0x3d85d7fb	0.06535336
230	0xbda337aa	-0.079696015
231	0xbd6d7130	-0.057969272
232	0xbdc88ec5	-0.09792856
233	0x3bfdf690	0.00775034
234	0xbe83b50b	-0.25724062
235	0x3dc69f64	0.0969837
236	0x3e13962b	0.14412753
237	0x3cd588cb	0.026066205
238	0x3d2b5022	0.041824467
239	0xbcefdddc	-0.029280595
240	0xbdbdeaec	-0.092733234
241	0xbe548577	-0.20754038
242	0x3e7663c3	0.24061494
243	0xbd3c9065	-0.046036143
244	0x3e56dcd7	0.20982681
245	0x3da62572	0.08112611
246	0xbc9a04be	-0.01880109
247	0x3de787cd	0.11305199
248	0x3e1a7234	0.15082628
249	0xbe317a87	-0.17331897
250	0x3d17448d	0.03693061
251	0x3dd1dff3	0.10247793
252	0xbd1f6ff3	-0.038925122
253	0xbe235e59	-0.1595396
254	0xbc5ffdc5	-0.013671343
255	0x3cafa858	0.021442577
